…
Using TensorFlow backend.
len 104000
['1760', '1780', '1800', '1820', '1840', '1860', '1880', '1900', '1920', '1940', '1960', '1980', '2000']
len 94875
['1760', '1780', '1800', '1820', '1840', '1860', '1880', '1900', '1920', '1940', '1960', '1980', '2000']
vocab = 20172
(104000, 293)
time: 2017-12-13 13:35:25.385343, epochs: 8, learning rate: 0.0003, training size: 100000, test size: 94875
_________________________________________________________________
Layer (type)                 Output Shape              Param #   
=================================================================
input_1 (InputLayer)         (None, 293)               0         
_________________________________________________________________
emb_layer (Embedding)        (None, 293, 100)          2017200   
_________________________________________________________________
conv1d_1 (Conv1D)            (None, 293, 32)           9632      
_________________________________________________________________
batch_normalization_1 (Batch (None, 293, 32)           128       
_________________________________________________________________
max_pooling1d_1 (MaxPooling1 (None, 146, 32)           0         
_________________________________________________________________
flatten_1 (Flatten)          (None, 4672)              0         
_________________________________________________________________
dense_1 (Dense)              (None, 13)                60749     
=================================================================
Total params: 2,087,709
Trainable params: 2,087,645
Non-trainable params: 64
_________________________________________________________________
None
Train on 83200 samples, validate on 20800 samples
Epoch 1/8
83200/83200 [==============================] - 206s - loss: 1.6948 - acc: 0.3229 - val_loss: 1.5581 - val_acc: 0.3571
Epoch 2/8
…
