…
['1760', '1780', '1800', '1820', '1840', '1860', '1880', '1900', '1920', '1940', '1960', '1980', '2000']
len 94875
['1760', '1780', '1800', '1820', '1840', '1860', '1880', '1900', '1920', '1940', '1960', '1980', '2000']
vocab = 20172
(104000, 293)
embedding model not found
time: 2017-12-12 12:38:19.562209, epochs: 15, learning rate: 0.0001, training size: 100000, test size: 94875
_________________________________________________________________
Layer (type)                 Output Shape              Param #   
=================================================================
input_1 (InputLayer)         (None, 293)               0         
_________________________________________________________________
emb_layer (Embedding)        (None, 293, 100)          2017200   
_________________________________________________________________
conv1d_1 (Conv1D)            (None, 293, 128)          64128     
_________________________________________________________________
max_pooling1d_1 (MaxPooling1 (None, 146, 128)          0         
_________________________________________________________________
flatten_1 (Flatten)          (None, 18688)             0         
_________________________________________________________________
dense_1 (Dense)              (None, 13)                242957    
=================================================================
Total params: 2,324,285
Trainable params: 2,324,285
Non-trainable params: 0
_________________________________________________________________
None
Train on 83200 samples, validate on 20800 samples
Epoch 1/15
83200/83200 [==============================] - 343s - loss: 2.1632 - acc: 0.1979 - val_loss: 1.8958 - val_acc: 0.2538
Epoch 2/15
…
