average

python conv_network.py 
Using TensorFlow backend.
['1856', '1865', '1875', '1883', '1897', '1903', '1911', '1924', '1936', '1945', '1957', '1965', '1972', '1983']
time: 2017-12-07 11:28:02.943995, epochs: 10, learning rate: 0.001, training size: 10000, test size: 2000
_________________________________________________________________
Layer (type)                 Output Shape              Param #   
=================================================================
emb_layer (Embedding)        (None, 447, 300)          32738100  
_________________________________________________________________
conv1d_1 (Conv1D)            (None, 445, 128)          115328    
_________________________________________________________________
average_pooling1d_1 (Average (None, 222, 128)          0         
_________________________________________________________________
flatten_1 (Flatten)          (None, 28416)             0         
_________________________________________________________________
batch_normalization_1 (Batch (None, 28416)             113664    
_________________________________________________________________
dropout_1 (Dropout)          (None, 28416)             0         
_________________________________________________________________
dense_1 (Dense)              (None, 14)                397838    
=================================================================
Total params: 33,364,930
Trainable params: 569,998
Non-trainable params: 32,794,932
_________________________________________________________________
None
Train on 8000 samples, validate on 2000 samples
Epoch 1/10
8000/8000 [==============================] - 134s - loss: 2.4039 - acc: 0.2712 - val_loss: 2.6134 - val_acc: 0.1795
…
